TTT/model/model.pth (torch, 21312 bytes, 4 tensors)

linear1.weight f4 [256, 9]
000000 b4 e5 fe bd b2 cb a5 3d 21 d0 e6 3d 07 95 dc 3c
       -0.12446156 0.080954924 0.11270166 0.02692653
000010 42 cf 9c 3e 6f a5 6a be db c0 e5 3d b2 9f 9a bd
       0.30626875 -0.2291467 0.11218425 -0.07549991
000020 f0 8a 4d be cd 1b e2 bd c1 95 a6 bc 03 97 3a bd
       -0.20072532 -0.11040459 -0.02033508 -0.045554172
000030 ce 9f b9 bd 00 ef bb 3d bb eb 89 3e c4 2a ab 3e
       -0.090636835 0.09176445 0.2693766 0.33431065
000040 f8 34 01 bc c5 8c f1 bc a4 c8 ec 3d 56 c9 a7 be
       -0.007886164 -0.02948607 0.11561707 -0.32770795
000050 56 72 55 be 0b e3 5e be 21 95 91 3e be 81 95 be
       -0.20844397 -0.21766298 0.2843409 -0.29200548
000060 92 49 1e 3e d0 88 33 3e b6 40 eb bd d8 a0 a8 3e
       0.15457752 0.17532659 -0.11486952 0.32935214
000070 9f a4 5f 3e 71 f8 76 3b 5e 64 0e 3e cd 8b 29 ba
       0.21840142 0.0037684704 0.13905475 -0.00064676703
000080 f6 ab 4f bd 14 98 e0 38 37 23 ba bd 8d 3e de 3d
       -0.050701104 0.00010709479 -0.09088748 0.10851774
000090 7c 6e 1a bd e7 20 7e 3e fe 51 77 be 20 c6 e3 3b
       -0.037703022 0.24817239 -0.24152371 0.0069511086
0000a0 62 76 bc 3d 78 7c a5 be 36 bd 14 be e0 a7 42 bc
       0.09202267 -0.32321525 -0.14525303 -0.011880845
0000b0 81 07 80 3e d1 61 6c 3e 8f e2 a5 be d1 89 22 be
       0.25005725 0.23084189 -0.32399413 -0.15872885
0000c0 0b b4 a2 3e c1 8d 83 be 0f f0 88 3e 64 69 a5 be
       0.31777987 -0.25694087 0.2674565 -0.3230697
0000d0 92 8a c0 bd 29 c1 4c 3d aa 39 a2 be 5e 70 70 be
       -0.0940143 0.0499889 -0.3168462 -0.23480365
0000e0 01 16 82 3e a3 61 76 3e ef a6 63 bd 51 41 3c be
       0.25407413 0.24060683 -0.055579122 -0.18384291
0000f0 d8 04 d2 bc 78 85 95 3e df 08 89 3d 2e 6f 8c bc
       -0.025637075 0.2920339 0.06691145 -0.017142858
000100 64 b4 a6 be f3 36 1a 3e cd 72 34 3e 90 68 9e be
       -0.32559502 0.15060024 0.17621918 -0.3093915
000110 52 58 a0 3e c7 7f 94 be 08 93 6b 3d 73 1d 98 be
       0.31317383 -0.29003736 0.057513267 -0.29709968
000120 ef ed 92 3e 83 d2 a6 3d 08 55 62 be b9 c1 28 3e
       0.28697154 0.08145621 -0.2210275 0.1648015
000130 c4 18 12 3e 77 ba 2d be cf c3 11 be 28 19 0d be
       0.1426726 -0.16965662 -0.14234851 -0.13779128
000140 d9 2a 9e 3e 4a b7 f8 3d 46 40 44 bd e6 1f 96 be
       0.30892065 0.121443346 -0.04791286 -0.29321212
000150 63 68 94 be ca 55 27 3e 15 e8 98 3e e0 51 36 3c
       -0.2898589 0.1634132 0.29864565 0.011127919
000160 e9 2f 7e 3e 0e 2c 4a be 7f e0 69 3e be cb 0d be
       0.24822964 -0.19743368 0.22839545 -0.13847253
000170 a2 ff 4d 3e 8c e0 54 3d 08 c3 4f be db f5 b4 bb
       0.20117047 0.051971957 -0.20289242 -0.0055224723
000180 84 10 3b 3e 64 81 04 be e8 b7 43 be a2 a6 5c bd
       0.18268019 -0.12939984 -0.19113123 -0.05386985
000190 d0 db a7 bd b7 cf 7c 3d a5 1f 92 be 8c b0 0e 3e
       -0.08196223 0.06172153 -0.28539768 0.13934535
0001a0 2c 38 6a 3e b3 5e 61 3e 12 db 90 3e c6 ef 29 3e
       0.2287299 0.22008781 0.28292137 0.16595373
0001b0 a4 be 12 3e cd ff 4c bd 8e 79 3e 3e e3 78 19 be
       0.14330536 -0.050048638 0.18601057 -0.14987521
0001c0 6a 41 3f bd bf ec 73 bd 94 86 4b be 45 0d a2 3c
       -0.046693243 -0.05955195 -0.19875556 0.019781718
0001d0 76 0b 8e 3e 93 3b 98 3e a1 38 4e be bb 56 68 3e
       0.2774312 0.29732952 -0.2013879 0.22689335
0001e0 4a 4b c5 3c ea dd 4e 3c 10 df d2 3a bb e1 7e be
       0.024083752 0.012626151 0.0016088206 -0.24890797
0001f0 8d 97 a5 be 24 43 57 bc 93 65 83 ba a3 00 83 3c
       -0.32342187 -0.013138566 -0.0010024778 0.015991515
000200 18 e2 60 3e 9d 8c 93 be 26 e9 2c be 67 73 46 be
       0.21961248 -0.28818217 -0.16885814 -0.1937996
000210 9e 85 48 bc 06 17 22 be 05 d0 48 3d f4 8f 39 3d
       -0.012238888 -0.15829095 0.049026508 0.0453033
000220 ef f4 88 be 54 49 71 bc ae be 69 3e cd 8b bb 3d
       -0.2674937 -0.014726955 0.22826645 0.09157524
000230 ca 56 48 be ec c3 6f be 59 50 05 3e d6 36 97 3e
       -0.19564357 -0.23414582 0.13018931 0.29534024
000240 60 12 55 be 16 e8 77 be 6e fa 8a 3e f8 54 9e be
       -0.20807791 -0.24209628 0.27144188 -0.309242
000250 00 d8 e9 bc 53 1b ea bd 05 f4 53 3d cf 92 2b be
       -0.02854538 -0.11430993 0.051746387 -0.16755222
000260 9f 81 be bd f1 ef 88 be 7e ca d1 3d 2c 05 af be
       -0.09302067 -0.2674556 0.102437004 -0.34183633
000270 8d 97 80 3e bb 67 6b 3e b3 01 2c 3e 88 47 8c be
       0.25115624 0.22988789 0.16797523 -0.27398324
000280 54 b4 91 3e 65 04 42 3e b9 8c 86 be a5 36 d9 bd
       0.28457892 0.18946989 -0.26279238 -0.10606126
000290 b8 29 9b be 70 9d 9d 3e 37 c3 8a be 17 d5 07 3e
       -0.30305266 0.30784178 -0.27102062 0.13264881
0002a0 a3 ba b0 3b 6c a2 8a be bb 60 ad 3e f8 cf 7a 3d
       0.0053933426 -0.27077043 0.33862862 0.06123349
0002b0 c8 aa 73 be 6c 0b 83 be 1c 28 5d be 32 d5 a1 bc
       -0.23795617 -0.25594652 -0.21597332 -0.01975498
0002c0 da 16 32 3e 12 d8 ca 3d 41 ea c0 3d 19 f8 a9 3e
       0.1739153 0.099044934 0.094196804 0.33197096
0002d0 e1 e2 5e be 43 10 85 be 94 c4 3c 3d 8e eb a0 be
       -0.21766235 -0.2598897 0.04608591 -0.31429714
0002e0 ab 27 44 be 88 ac 38 3e 72 99 01 3d be 4e a3 be
       -0.19155757 0.18034565 0.031640477 -0.31896013
0002f0 39 3d 38 3e 4d 0a 18 be 39 51 5a 3e 5a f0 05 3e
       0.17992105 -0.1484768 0.21320046 0.13079968
000300 7b e8 9b 3e 1c 89 51 3e 74 68 20 be b0 cc 8b 3e
       0.30450806 0.2046246 -0.15664846 0.27304602
000310 c1 5a 33 3e e3 ef 63 be b4 9a 85 bc 6c 4e 40 3d
       0.17515089 -0.22259478 -0.01630912 0.04694979
000320 1e ad 12 be e0 90 a4 3b 22 08 06 3e 4e 1d 88 3d
       -0.14323851 0.0050221533 0.1308904 0.066462144
000330 40 21 8c 3b a8 d5 01 be c8 ee 8c bd e0 6d e0 3b
       0.0042764246 -0.1267916 -0.068814814 0.0068490356
000340 5d f7 23 bd d1 70 a7 3e 1d c9 18 3e 11 c5 03 3e
       -0.040030826 0.3270326 0.14920469 0.12868144
000350 37 60 a8 3e a4 74 8e 3c 6b d1 20 be ca e4 1d 3e
       0.32885906 0.017389603 -0.15704887 0.15419307
000360 77 f5 75 3c ac a6 82 bc 5e e6 cf b9 c9 4e d1 3d
       0.015012137 -0.015948616 -0.00039653754 0.10220105
000370 7f fb 64 3e af 10 21 3c 10 b1 82 be 88 96 81 be
       0.22361563 0.009830638 -0.25525713 -0.2531016
000380 dd d3 83 3e b8 15 d7 bd 7d 0e b9 3d f8 89 3a 3e
       0.25747576 -0.105021894 0.090359665 0.18216693
000390 6a 83 2e 3e 74 bc ff 3d 97 28 a3 3d 7b 8b 17 3e
       0.17042318 0.124871165 0.07966726 0.14799301
0003a0 bd ec ce 3c 90 5e 07 be 23 e2 99 3e af 8a 4b be
       0.02525937 -0.13219666 0.3005534 -0.19877122
0003b0 f0 c4 31 3d 00 09 ae 3e bb 7c ef 3d 5d e2 10 3e
       0.043400705 0.3399124 0.11693712 0.1414885
0003c0 18 9b 50 3d fa b3 89 3e 02 20 ac be e8 c0 22 3e
       0.05092916 0.26895124 -0.3361817 0.158939
0003d0 3b 1f bd 3d 19 09 b9 3d 2e 8e 62 be 52 cb 84 3d
       0.09234472 0.09034938 -0.2212455 0.06484093
0003e0 c7 aa 9b be d1 e7 21 3e 0c 04 a7 bd 4c 07 6b bc
       -0.3040373 0.15811087 -0.08155069 -0.014345001
0003f0 bf 51 1f bd d4 f3 72 3d 64 97 2c 3e a2 c8 dd 3d
       -0.03889632 0.059314564 0.16854626 0.10829283

linear1.bias f4 [256]
000000 9d 47 2d 3e 2f ff 8b be 0a 63 81 bd 7e 75 8a be
       0.1692185 -0.27343127 -0.06317718 -0.27042764
000010 6a 63 a4 be 22 a3 ce bd cd ba 58 be 55 30 98 3d
       -0.32107097 -0.10089709 -0.21165009 0.074310936
000020 c2 24 83 be ee f5 6c be 08 37 50 be 44 05 8e 3e
       -0.2561398 -0.2314069 -0.20333493 0.27738392
000030 85 da 6b bd f7 07 97 3c 27 1c fc bb ce 75 23 be
       -0.057581443 0.018436415 -0.0076937857 -0.15962908
000040 c6 b8 a5 be 5a 6b f6 3d 10 96 77 bd 96 df 78 3e
       -0.32367533 0.120321944 -0.060445845 0.24304041
000050 60 d8 68 bd 48 4c 9b be 53 2f 44 be 92 c5 e8 3d
       -0.056846976 -0.30331635 -0.19158678 0.113658085
000060 38 f3 13 be 50 e1 9a bd 6c 1f a4 be d1 e9 8f 3e
       -0.1444825 -0.07562506 -0.32055223 0.28108075
000070 34 21 d2 3b 6f a1 c7 bd 5a e1 4c be 69 af 0d be
       0.0064126495 -0.09747588 -0.2000784 -0.13836445
000080 c0 15 1a be 37 8d 6e 3e dd af b1 be 65 68 9d be
       -0.1504736 0.23296057 -0.34704486 -0.3074371
000090 b3 75 9b 3e 40 34 53 bd aa 67 24 bc 23 d3 71 be
       0.30363235 -0.0515635 -0.010034481 -0.23615699
0000a0 da e3 7d 3d ee ac 93 3e df c9 89 3e f7 95 d5 3d
       0.061984874 0.28842872 0.26911828 0.10428994
0000b0 22 f1 89 3e ce 8c 6c 3e fb 3c 0b 3d de e8 54 3d
       0.26941782 0.23100588 0.033993702 0.051979892
0000c0 f8 d5 15 be 17 67 c4 3d bc 73 3c be 2a 14 83 bd
       -0.14632404 0.09589975 -0.18403524 -0.0640033
0000d0 6c b7 6e be 09 ae 95 be ef 6c 08 3e bf 17 83 3c
       -0.23312157 -0.2923434 0.13322805 0.016002534
0000e0 f2 7c 99 3c 62 88 63 be 11 85 73 bb 05 8e 53 3d
       0.018736336 -0.22219995 -0.0037158171 0.051649112
0000f0 10 e9 37 bd 75 23 fb bb e9 d3 87 be 68 7e f8 bc
       -0.0449 -0.007664139 -0.26528862 -0.030333713
000100 66 e9 95 be 4b 31 87 3d b6 3b 35 be 1f b8 2e be
       -0.2927963 0.06601199 -0.17698559 -0.17062424
000110 02 45 26 bd b5 f6 87 be e5 10 8d bd 2e 51 74 3e
       -0.040593155 -0.2655541 -0.06887988 0.23859093
000120 6d 6f 75 bd 3e e9 a1 3c ec 38 32 3e d7 c5 3a 3e
       -0.059920717 0.019764539 0.17404526 0.18239532
000130 6f 42 2b 3e 80 e7 72 be 8c 28 7a be a1 63 31 3d
       0.16724561 -0.23721123 -0.2442953 0.043307904
000140 32 e7 5a bd c2 a3 06 3e bc 03 15 3e 9d 8b 94 be
       -0.05344314 0.13148406 0.14552206 -0.29012766
000150 2f 04 80 be 6b 7f 92 be 63 c5 73 be 37 e7 d1 bd
       -0.25003192 -0.28612837 -0.23805766 -0.10249179
000160 8b bf 7a be 11 91 92 3e 50 58 e1 bd 0a 39 0e be
       -0.2448713 0.28626302 -0.110031724 -0.13888946
000170 1a dc 9c 3e 39 97 97 3e f6 d0 f8 bd ef 87 2d 3d
       0.30636674 0.2960756 -0.12149231 0.042365965
000180 91 04 43 3e b2 9e cf bc 81 ee 3a be ac ae 51 be
       0.1904471 -0.025344227 -0.18255045 -0.20476788
000190 3b 85 4a 3c 7c f8 8b bd d9 4d 3a 3c e2 6f 2f 3e
       0.012360866 -0.06834504 0.011371099 0.17132524
0001a0 ab ab 3c 3e d7 fb 59 3e 3e 8c ea bd 13 12 fe bd
       0.18424861 0.21287476 -0.1145253 -0.12405791
0001b0 31 62 12 3e a1 50 21 3e 0b 8a 31 3d 43 a4 57 3d
       0.1429527 0.15753414 0.04334454 0.052646887
0001c0 96 51 f1 bd 09 00 15 be 0d 43 a6 3e a7 b6 62 be
       -0.117831394 -0.14550795 0.3247303 -0.22139989
0001d0 13 a9 a0 3e 7a e8 9a 3d c6 c6 61 be 99 03 16 bd
       0.31378993 0.07563873 -0.22048482 -0.036624525
0001e0 bc 0c 07 3e a3 d6 82 3e be 00 e0 bd 3c 34 5a 3e
       0.13188452 0.2555438 -0.109376416 0.21308988
0001f0 b6 9a 5d be 13 c5 6d bc 98 6f 78 3d e2 d8 3c 3e
       -0.21641049 -0.014512318 0.0606533 0.18442109
000200 60 bb 28 3d ea 21 48 be 8e 1a 2f be 66 1d 14 bd
       0.04119432 -0.19544187 -0.17099974 -0.03616085
000210 9b 31 8e 3e 46 a1 03 3e 6e 7f 42 3e 28 ed 19 3e
       0.2777222 0.1285449 0.18993923 0.15031874
000220 7d 35 44 be c5 dc 82 3e 80 3c 92 3e a0 80 9d be
       -0.19161029 0.2555906 0.28561783 -0.30762196
000230 86 29 a5 bb dc 51 98 3e ef e2 a3 3e fb 62 81 3e
       -0.0050403504 0.29749954 0.32009074 0.2527083
000240 3e 90 8c bc b7 7a fa 3d 27 7b 95 3e 3c a9 99 be
       -0.017158624 0.12230437 0.2919552 -0.30011928
000250 9f 61 29 be 1f 7b 96 3e 8d 30 8a 3e 4e 71 53 be
       -0.16541146 0.2939081 0.26990166 -0.20648691
000260 8e d4 2e be aa 8d 3a 3d 4f b8 2e 3e b8 b9 93 be
       -0.1707327 0.045545258 0.17062496 -0.2885263
000270 a9 3c 49 3c 33 7f a1 3e 00 d9 ca bc ae fb ca bc
       0.012282529 0.31542358 -0.024761677 -0.024778213
000280 e5 64 99 bd 08 c5 2d be 48 9f a4 3e d5 66 97 3e
       -0.07489947 -0.16969693 0.32152772 0.29570642
000290 d6 b9 b9 3d a9 0a 1d be 76 cc 1c 3e d3 49 5b 3d
       0.090686485 -0.15336098 0.1531237 0.0535372
0002a0 be 0e 7e be 7c 5b 1e be 6f 93 97 3d 57 9e 8b be
       -0.24810311 -0.15464586 0.074011676 -0.2726924
0002b0 5e 12 c6 3c 92 b9 7a 3e c0 fa 08 3d d5 52 75 be
       0.02417868 0.24484852 0.03344226 -0.23957379
0002c0 9e 51 4c 3e 36 2a ea bd 68 87 8b 3e fa 4a 18 bd
       0.1995301 -0.11433832 0.27251744 -0.03718088
0002d0 34 fc 0a 3e 89 23 86 3e c3 08 49 3c 91 b4 a3 be
       0.1357277 0.26198986 0.012270155 -0.319737
0002e0 2b 66 47 be e1 3d 44 3e 52 6e 9b be 86 ac 26 3e
       -0.19472568 0.1916423 -0.30357605 0.1627675
0002f0 97 06 a8 3d 5e 25 2e be ca 66 33 bc 74 fb a8 be
       0.08204382 -0.17006442 -0.0109498 -0.33004344
000300 b0 fa 37 3d 56 9b 22 3d 4e 52 e0 3d 4b 9c 92 3e
       0.04491681 0.03969892 0.109531984 0.28634867
000310 92 9d aa 3d db 49 24 3b 97 a9 f4 bd 0f 92 b5 bd
       0.083308354 0.0025068435 -0.11946409 -0.08865749
000320 4f 8a 85 be 1c 6a 76 be 7a d8 02 3e 98 19 24 be
       -0.26082084 -0.24063915 0.12777892 -0.16025388
000330 1d 74 7b be 2a cf 4c be 24 fc 27 be 16 f1 9d 3e
       -0.24556012 -0.20000902 -0.16404778 0.30847996
000340 50 b4 88 bc 67 a5 18 be 5e 00 09 be f9 fa 20 bd
       -0.016687542 -0.14906846 -0.13379046 -0.039301846
000350 c4 2b a5 be 70 87 0b 3e cf a4 87 be b9 9c b0 bd
       -0.32259953 0.13625884 -0.26492926 -0.086236425
000360 bc 96 6d 3c e4 f7 c2 bd e0 23 47 be 31 40 3e be
       0.01450127 -0.09519938 -0.19447279 -0.18579175
000370 da 04 93 3e a2 66 86 3e d6 45 b2 bd 26 62 b8 bc
       0.2871464 0.26250178 -0.087047264 -0.022507738
000380 78 10 9d 3e 73 21 83 3e 9b 99 50 3e 25 b1 ec 3d
       0.30676627 0.25611457 0.20371096 0.11557225
000390 67 fe 62 3e 86 ff 76 3e 15 8c 83 be ed d9 7d 3e
       0.2216736 0.24120912 -0.25692812 0.24790163
0003a0 33 6e 3b 3e ac ba a3 be f2 99 60 3e c9 f1 dc 3d
       0.18303756 -0.31978357 0.21933725 0.10788304
0003b0 b0 9b 93 3e 5e 62 57 3d 1b c9 9d 3d 5f a6 ee bb
       0.28829718 0.052584045 0.077043734 -0.0072830166
0003c0 bd 87 10 3d 38 3b a5 bd 0a 75 31 be ee 27 39 be
       0.0352857 -0.08067936 -0.17329803 -0.18081638
0003d0 9d 70 7b be a0 9e 2f 3e a8 e7 e6 bd ab 2b 73 be
       -0.24554677 0.17150354 -0.11274654 -0.23747127
0003e0 cf 84 84 3e 5c ec 18 be 7a c0 9a 3e 1b e1 9f be
       0.25882575 -0.14933914 0.30224973 -0.3122643
0003f0 99 b0 17 3e 20 7d a7 be bb e7 64 be 5f 88 a9 be
       0.1481346 -0.3271265 -0.22354023 -0.33111855

linear2.weight f4 [9, 256]
000000 dc 35 1b 3d 84 96 dd 3c 0f f8 9c bc 38 20 49 3c
       0.03789316 0.02704931 -0.019161252 0.012275748
000010 9a 14 4c 3d 3b b5 c9 bc 43 46 a7 bc dd 6a 0f 3c
       0.049824335 -0.02462255 -0.020419246 0.008753506
000020 f5 de 74 bd 81 f6 4b 3c 12 5e 30 bb 22 3b 6c 3d
       -0.05978294 0.012448908 -0.002691154 0.05767358
000030 82 11 9c bc 14 74 e4 bc e0 20 72 bc 36 f7 8b bc
       -0.019051317 -0.027887382 -0.014778346 -0.017085653
000040 18 9d 3d 3c df 2f 21 3c a0 9c 45 3d 65 12 c5 3c
       0.011573099 0.0098380735 0.048245072 0.024056623
000050 62 a4 77 bd 76 18 91 3c 35 f5 d2 ba ff ff 68 bd
       -0.060459502 0.01771186 -0.0016094806 -0.056884762
000060 40 e6 2b 3c 84 f7 1e bd 8c 62 ba bc d3 55 30 3d
       0.010491908 -0.038810268 -0.022752069 0.0430506
000070 ff 2b bf bc 5a f6 cf bc 62 a0 d4 3c 2c 29 43 3d
       -0.023336409 -0.025386024 0.025955383 0.047646686
000080 5c ef a1 3c da 0f 63 bd da 72 ee bc 7d 43 d7 3b
       0.019767456 -0.05543504 -0.0291075 0.0065693245
000090 36 1f 04 3d 3c 08 4f 3d d7 7d 25 3d 7a a5 19 3d
       0.032256328 0.050544962 0.040403213 0.037511326
0000a0 4f 20 74 3c 9d c3 5a 3a 4b b3 f7 bc 8f 03 25 bd
       0.014900281 0.00083451887 -0.03023686 -0.040286597
0000b0 f8 d2 54 3d 27 52 89 3c 58 e4 d7 3c 70 e6 11 3d
       0.051959008 0.016762806 0.026354 0.035620153
0000c0 9b 48 7c 3d fe 2a 29 3d 5b 16 05 bd 6f 62 53 bd
       0.06159268 0.041300766 -0.032492023 -0.051607545
0000d0 ca 6b 75 bd a4 8d 43 bd 5c 6b da 3c bf 06 a3 bc
       -0.05991725 -0.0477425 0.026662521 -0.019900678
0000e0 e3 3b 1c 3c d0 87 62 3d 6e 1b f3 3c fc b6 69 bd
       0.0095357625 0.055305302 0.029676165 -0.057059273
0000f0 ba c5 3d bd 25 19 a0 3c b5 dd 81 bd 8b 25 0f bb
       -0.046331145 0.01954324 -0.063411154 -0.0021842446
000100 50 75 38 bc a7 b0 de bc bf 17 20 3c bf d7 02 bc
       -0.011258438 -0.027183844 0.0097712865 -0.007986008
000110 40 c4 5f 3d f6 e5 39 bd b7 28 c1 3c a6 50 27 bd
       0.054630518 -0.045385323 0.023578985 -0.040848397
000120 d0 69 80 bc 1d ba 4f 3d fc 0c 02 3a 41 29 22 3d
       -0.015675455 0.0507146 0.0004961041 0.039590124
000130 d9 39 4f bd e6 71 09 3d 7a 24 6b 3d 4b 39 05 bd
       -0.050592277 0.033555888 0.057407834 -0.032525342
000140 fb e4 44 3d 66 8f 6d bc eb ee 9e bc 80 81 62 bd
       0.048069935 -0.014499521 -0.019401034 -0.055299282
000150 98 45 53 bd 90 8a 27 bd ab bc 6a 3d 74 4a 63 3d
       -0.05158004 -0.040903628 0.057308834 0.055490926
000160 fa 15 14 3d 28 21 41 bc 8a e3 6c bd 52 bd 3c 3d
       0.03615377 -0.01178769 -0.057834186 0.046078987
000170 1e 0f dd ba 0f 74 3b bd 30 29 ec 3c 52 8d 83 bc
       -0.0016865467 -0.04576498 0.028828233 -0.016058598
000180 52 b6 ec bc b9 b5 e0 bc 17 1f 25 bc e5 f2 41 bd
       -0.02889553 -0.027430402 -0.010078213 -0.047350783
000190 84 29 69 bd ff 49 4e 3d 2f 2c b9 3c 42 af 15 bd
       -0.056924358 0.050363537 0.022604076 -0.036544092
0001a0 43 88 71 bd ef 37 5f 3b 3f 56 6e bc 60 0f 78 3b
       -0.05896784 0.0034060439 -0.01454693 0.003785096
0001b0 cb 2a d2 3c c9 bd 97 bc 13 a2 29 3d 3b 87 04 3d
       0.02565517 -0.018523114 0.04141433 0.03235553
0001c0 48 d5 3e bc d5 d2 7b 3c 01 28 69 bd 30 ec 82 bb
       -0.01164753 0.0153700905 -0.056922916 -0.003995441
0001d0 8d cd 22 3c 63 17 22 bc b0 25 36 3c 84 04 59 3d
       0.009936702 -0.009893271 0.011117384 0.052982822
0001e0 25 80 36 bc 56 bf 17 bd 50 5c 97 bc c3 48 8a bb
       -0.0111389505 -0.037047707 -0.018476635 -0.0042200997
0001f0 2d fd 0a 3d f3 47 1d 3d 8c 00 1a bd d3 0a 2d 3d
       0.033932853 0.038398694 -0.037598178 0.04224665
000200 a2 b9 52 bd c3 ba a9 bc d2 96 6c bb 30 3b 6b bd
       -0.051446564 -0.020718938 -0.0036100638 -0.057429492
000210 20 8c 67 3c 84 e5 08 3d 4f 85 af bc b9 b1 fc bc
       0.0141325295 0.03342201 -0.021425871 -0.030846464
000220 7b 1a 4c bd aa d9 5e 3d 46 74 3f 3d ee 3e 42 3d
       -0.04982994 0.0544068 0.046741746 0.047423296
000230 4e 63 c0 bc fa 65 3c 3d 50 d3 18 3d 2f 92 cd bb
       -0.023484852 0.04599569 0.0373109 -0.00627353
000240 1e 4d 6b bd f7 9f 23 bd 2c c5 67 3c 25 6f 31 bd
       -0.05744659 -0.039947476 0.0141461305 -0.043318886
000250 46 e6 4e bd 48 bb 28 3d 20 84 29 3d 19 01 69 bc
       -0.050512575 0.04119423 0.04138577 -0.014221453
000260 07 e1 09 3d 92 3e ef bc fe 7a bf 3c a4 aa 3a 3d
       0.03366187 -0.02920464 0.023374077 0.04557289
000270 a3 ee 91 3b 45 4f 5d bc 8a bb 27 bd a0 b2 53 bc
       0.0044534965 -0.013507669 -0.040950336 -0.0129210055
000280 ae 5f 91 bc e6 42 c8 3c 9b c1 d5 3c ee 84 01 bd
       -0.017745819 0.024445962 0.026093295 -0.031620912
000290 10 24 44 bd 6c bd 01 3b 5f f8 50 3d f2 19 ff 3c
       -0.047885954 0.0019796742 0.051018115 0.031140301
0002a0 e4 ac 2b 3d fa a5 c0 bc 91 5d 7f bc 86 28 5a 3d
       0.04191293 -0.023516644 -0.015586273 0.053261302
0002b0 b1 61 45 3b 66 f4 43 3d 90 19 11 3d 3e 33 33 bd
       0.0030118043 0.0478405 0.03542477 -0.04375004
0002c0 4a 8e 79 bd 50 45 19 bd 07 b9 c7 bc bb ef 3c bd
       -0.060926713 -0.037419617 -0.02438022 -0.046127062
0002d0 f7 ed 1f 3d 40 f1 26 3d dc 0e 22 bd 1a 07 48 bd
       0.0390453 0.040757418 -0.039564952 -0.048834898
0002e0 6b 46 2c 3d 36 e4 d2 bb ce 1b 2b 3b 56 dd 1c bd
       0.042059343 -0.0064358963 0.0026109102 -0.03829702
0002f0 16 27 6f bc 20 4e b3 3c a0 83 43 3d 50 42 46 bc
       -0.014596721 0.021887839 0.04773295 -0.012100771
000300 09 54 3d bc 67 2a a4 3c 03 97 09 3d 41 bd 47 bd
       -0.01155568 0.02003975 0.03359128 -0.04876447
000310 ef 42 3f 3d a1 c0 af bc ee 81 51 bd c4 01 50 3d
       0.046694692 -0.021454157 -0.0511493 0.050782934
000320 2c d8 05 bd db 46 94 bc 93 7c 67 3d 6a 58 84 bd
       -0.03267686 -0.018100193 0.056515288 -0.06462176
000330 31 07 35 bd 90 87 d0 3b a8 03 4a bd c0 b9 01 bd
       -0.04419631 0.0063638166 -0.049319893 -0.031671286
000340 95 61 77 bd 77 1e 49 3b ce 31 af bc dd 66 81 3d
       -0.060395796 0.0030688324 -0.021386053 0.06318448
000350 b0 b3 6f bd 8b 24 55 3d bc 98 3e 3c 55 d1 aa bc
       -0.058520973 0.052036803 0.011633094 -0.02085177
000360 51 68 ca bc 3b bd fc bc f0 c3 56 bd 03 b0 2b 3d
       -0.024707945 -0.03085195 -0.052432954 0.041915905
000370 d1 48 ad bc e8 73 86 bc b4 03 41 3d 9b ca 63 bd
       -0.021152886 -0.01641269 0.047122672 -0.05561314
000380 79 50 5a bd b8 dc 61 3d 0c a3 28 bc 8a 17 ca bc
       -0.0532994 0.055142134 -0.01029278 -0.024669427
000390 90 47 7a bd 2c 3b ba bb 60 e5 0c 3d 72 0b 83 bc
       -0.061103404 -0.0056833234 0.034398437 -0.015996668
0003a0 5e 22 59 bc 28 40 a3 bc e7 c1 38 bc 39 93 34 bd
       -0.013252823 -0.019928053 -0.011276699 -0.044085715
0003b0 15 9b 2f 3d c0 be 56 bd 4f c5 21 3d 27 ba 80 bc
       0.042872507 -0.052428007 0.03949481 -0.015713764
0003c0 5a 58 09 3d 25 97 a8 3b b3 3f ce bc c7 ea d6 bb
       0.033531524 0.005144971 -0.025176859 -0.0065587494
0003d0 d8 c2 76 bd 31 f0 9f 3a fc 0a 26 3d 36 a1 34 bd
       -0.06024441 0.001220232 0.04053782 -0.044099055
0003e0 56 15 14 bd 87 a2 06 bd 5d 8b 61 bd 40 95 34 bd
       -0.03615316 -0.032869842 -0.055064548 -0.04408765
0003f0 25 34 33 3d 7d 9d a0 bc 50 f8 3e 3d 6d 23 bd 3c
       0.0437509 -0.019606346 0.046623528 0.023088181

linear2.bias f4 [9]
000000 d2 ba 7b 3d b8 76 7d 3d 30 4f 40 3d ca 83 f1 3c
       0.061457463 0.061880797 0.04695052 0.029481787
000010 a4 da 6c bc 67 84 b7 bc c9 18 6c bd f0 12 d7 bb
       -0.014456425 -0.022402002 -0.057640824 -0.006563537
000020 72 79 13 3b
       0.0022502807
